model.ckpt (torch, 32351 bytes, 2 tensors)

weight f4 [10, 784]
00000000: 644f dcbb 9445 0fbd 7850 66bc 6b2a 06bd
00000010: eb23 103d c039 b53a 4e19 06bd 43ec 82bc
00000020: 2038 073b 5c22 d3bc 4bd1 06bd 91f2 f3bc
00000030: 505c 80bc f115 53bb 814a 343c 8aeb 2ebc
00000040: 49cd 0e3d 0892 b13c 7239 3ebc 3ab3 fe3c
00000050: 3892 e6bc cad4 61bc 30a8 a93b 44c4 0b3c
00000060: d894 68bc 0c49 f6bc 587d f6bc 3ea0 dbbc
00000070: 119a 0e3d f7f5 94bc 3c90 5a3c 0864 ab3c
00000080: 1822 06bc ed43 b03c 29c1 cabc 5df9 2fbc
00000090: 7c12 acba ae33 ccba 443c f23b 1107 d23c
000000a0: 79c2 d73c d5e6 13bb ce85 11bd a615 d63c
000000b0: 4740 083d c069 8ebc 06cd d0bc 9355 093d
000000c0: e6b8 8f3c ae3a eabc c5fe 113d 1f0e 3ebc
000000d0: e0e8 28bc 44f5 203c ae26 c3bc c438 6b3c
000000e0: 9846 6bbc 98cb 0d3c 4158 0cbd 2a54 8fbc
000000f0: b540 033d 2398 ebbb 2f8b 59bb dd98 933c
00000100: b46d f73c ff7a 453c a210 e0ba bef3 e33b
00000110: 0956 eabc a4c6 493a a614 3ebc ec3c bb3a
00000120: f509 c83c f40e 19bd c8ab 543c 9d49 0dba
00000130: a050 fabc 26a5 fe3b cc5f 9cbc b177 883c
00000140: 5422 743c fd33 33bc 0766 0c3d 1454 f7bb
00000150: 5c19 8cbc d464 74bc 10c9 cf3c b5e0 b93c
00000160: 0cb2 5d3c a716 043d 60c6 943c 1d4a 5f3c
00000170: a06b 0abd f7e2 16bd 1aa4 ef3c cda6 3cbc
00000180: d44f f8bc 9735 29bd 9b2c fa3a 1c67 b4bc
00000190: 1b73 e03b 19c4 cc3c b493 a33c 0e7f 08bb
000001a0: fdbd 7ebc cc53 06bd 4b68 0b3d 1450 0a3c
000001b0: 7604 bf3a 0586 b33c f743 d93c 2e22 ce3c
000001c0: 9e36 9d3c 8391 c33c 4671 bebc ca99 e53c
000001d0: d84a a9bc f6fd acbc 65c1 7d3a 4653 11bd
000001e0: 2b1a 843c 190c f83c e116 7abc d568 70bc
000001f0: bfe4 763c 31d5 97ba 8fad c9bc 4ac3 f33c
00000200: 17ff aa3b 09d5 a73c c9c8 9a39 7045 dabb
00000210: eeb9 81bb 6db0 3f3c a3ad 05bd 4da5 f53a
00000220: c2ee 55bb d492 463c ba05 ee3c 868c b53c
00000230: 957c 84bc 1e17 a9bc 9f37 9cba 8a99 003d
00000240: e17a 083d 2115 d1bc 0283 8dbc c891 d53c
00000250: d52f c5ba c8fe b3bc 1795 d2bc cc47 963b
00000260: ffa8 59ba 4345 013a 5f78 b5bb 5b60 dc3c
00000270: 0995 573d 97d3 c03c 989d 03bc 4e6c e43b
00000280: 6a0f cb3c dcb8 293c 7c13 b9bc c191 48bc
00000290: 026e 343c 1f9f 0cbd 31c4 6e3c 90b1 03bd
000002a0: 9bdf 083d fbfe 06bd 5d0b bb3c 0b50 223c
000002b0: 54d7 013b 5829 863a 3909 09bd 6c1b 7e3c
000002c0: fda6 8dbb 4c91 ecbc 6042 d7bb fbe7 863c
000002d0: d185 b73c 286e 013d 2484 89bb 8bc0 543d
000002e0: 96a2 5b3d 98d2 083d 1b9a 173d c10c 263d
000002f0: 342d 313d 2dc9 073d 703d 8cbc 992b 10bd
00000300: 2efb f33c 5ab1 17bd 0eb8 bcbc 8060 b03c
00000310: 0a9b e73c 575a e33c ccd2 d53c 1241 b2b9
00000320: 40c2 0fbd 4e85 98bc 84fc 9ebb 6e00 9dbc
00000330: de0b d3bc dcd0 b53c 6920 ae3b 6896 ad3c
00000340: 83fd 003c 2a9a 0339 f5aa 5fbb b659 683b
00000350: 1f55 463d 0689 3f3d f7dd 253d f300 0a3d
00000360: a798 0f3b d30b 253d e486 9a3a 1407 823c
00000370: 138f 1dbb 0449 26bc 3a89 ae3c 2432 9d3c
00000380: c8ef b5bc 6e5d debc d69b ef3a 1a53 00bd
00000390: f36d 263c 7323 f0bc 0bb6 993c a829 343c
000003a0: 2420 9a3b 78ec 1cbc 5439 d43c a5ea 1d3b
000003b0: 852b 2d3d bfae 103c 8517 123d 4054 e23c
000003c0: 9e72 3cbc 4c7d cd39 61f0 213d 9fab 683d
000003d0: c264 033d 7e5d e93b f0a4 b23b 7bc8 7a3c
000003e0: a34e a53c abcf e73c 73e9 e43c b57b ecbc
000003f0: ed63 c7bc 984e e33c 3d14 41bc ba31 513b
-0.0067233313 -0.034978464 -0.014057271 -0.032755297 0.035190504 0.0013826415 -0.032738976 -0.015981799
0.0020632818 -0.02577322 -0.03291444 -0.02977875 -0.015669018 -0.0032209123 0.011004091 -0.010676274
0.034863744 0.021676078 -0.011610376 0.031091321 -0.028145894 -0.013783643 0.00517752 0.00853068
-0.014195643 -0.030064128 -0.030089065 -0.026809808 0.034814898 -0.018183691 0.013340052 0.020921722
-0.0081868395 0.021516765 -0.024750309 -0.010740605 -0.0013128067 -0.0015579367 0.007392438 0.025638135
0.026337849 -0.0022568007 -0.035527997 0.02613337 0.033264425 -0.01738441 -0.025488388 0.033528876
0.017544221 -0.028592434 0.035643358 -0.011600046 -0.010309428 0.009824101 -0.023822155 0.014356796
-0.014360093 0.008654498 -0.034263853 -0.017496187 0.03204413 -0.007189767 -0.0033194532 0.018017227
0.030203678 0.01205325 -0.0017094801 0.0069565466 -0.028605478 0.0007697141 -0.011601603 0.0014285124
0.02441881 -0.037367776 0.012980409 -0.00053896924 -0.030556023 0.007771152 -0.019088648 0.016658636
0.014900763 -0.010937688 0.03427699 -0.0075478647 -0.017101936 -0.014916617 0.025364429 0.022690156
0.013531219 0.032248165 0.018160999 0.01362851 -0.033794045 -0.036837544 0.029253054 -0.011514378
-0.030311503 -0.041310873 0.001908678 -0.022021823 0.006849659 0.02499585 0.019967891 -0.0020827684
-0.015548226 -0.03279476 0.03403501 0.008441944 0.0014573473 0.021914491 0.026521666 0.025162783
0.019191083 0.023873096 -0.023247372 0.028027434 -0.020665571 -0.021117192 0.0009680002 -0.035479806
0.01612576 0.030279206 -0.015264244 -0.014673431 0.015069186 -0.0011583922 -0.024618892 0.029756207
0.0052183974 0.020487325 0.00029522766 -0.0066611096 -0.003958932 0.011699778 -0.032636296 0.001874128
-0.0032643531 0.0121199675 0.029055465 0.022161733 -0.016172687 -0.020640906 -0.0011918432 0.031396426
0.03332031 -0.02552277 -0.017274383 0.02607049 -0.0015044162 -0.021972075 -0.025705857 0.0045861956
-0.00083030754 0.000493128 -0.005538031 0.026901415 0.052632365 0.023538394 -0.008033179 0.0069709187
0.024787623 0.010359015 -0.022592299 -0.012241782 0.011012556 -0.034331437 0.014573143 -0.03215176
0.03341637 -0.032958012 0.022832567 0.009906779 0.0019812183 0.001023571 -0.03345606 0.015509468
-0.004322885 -0.028877877 -0.006569192 0.016468039 0.022402676 0.031599194 -0.0041966606 0.051941436
0.05362185 0.033403963 0.0370122 0.040539507 0.043256 0.03315084 -0.01711914 -0.035197828
0.029782858 -0.03703437 -0.023036983 0.02153039 0.02827217 0.027753038 0.026101492 -0.00033999287
-0.03509736 -0.018618252 -0.0048518796 -0.019165244 -0.025762495 0.022194318 0.005313922 0.021189883
0.007872942 0.00012550564 -0.0034128998 0.0035453863 0.04842102 0.046761535 0.040494885 0.03369231
0.0021911056 0.04029448 0.0011789468 0.015872516 -0.0024041578 -0.010149244 0.02130567 0.019188948
-0.022209063 -0.02714416 0.0018280696 -0.03132925 0.01015805 -0.029313779 0.018763563 0.01099626
0.0047035385 -0.009577863 0.025906242 0.0024096158 0.04227783 0.008830725 0.03566696 0.027628064
-0.011501936 0.00039194 0.039535884 0.056804296 0.032078512 0.007121741 0.005451791 0.015306587
0.020179098 0.028297266 0.027943349 -0.028867582 -0.02433964 0.027747437 -0.01178461 0.0031920508

bias f4 [10]
00000000: d1db cbbc 9edd cc3c cf9b c1bc 7cab 353c
00000010: fdab 463d 81e9 d3bb fcd8 00bc ec01 f3bb
00000020: 840d 1bbd 79a1 b9ba
-0.02488509 0.025008019 -0.023633866 0.011088248 0.048503865 -0.006467045 -0.007864233 -0.0074160006
-0.037854686 -0.0014162502
